…
:01.932369Z","iopub.status.idle":"2023-11-28T13:17:05.261391Z","shell.execute_reply.started":"2023-11-28T13:17:01.932341Z","shell.execute_reply":"2023-11-28T13:17:05.260294Z"},"trusted":true},"execution_count":21,"outputs":[{"execution_count":21,"output_type":"execute_result","data":{"text/plain":"==========================================================================================\nLayer (type:depth-idx)                   Output Shape              Param #\n==========================================================================================\ndeeplob                                  [1, 3]                    --\n├─Sequential: 1-1                        [1, 32, 94, 20]           --\n│    └─Conv2d: 2-1                       [1, 32, 100, 20]          96\n│    └─LeakyReLU: 2-2                    [1, 32, 100, 20]          --\n│    └─BatchNorm2d: 2-3                  [1, 32, 100, 20]          64\n│    └─Conv2d: 2-4                       [1, 32, 97, 20]           4,128\n│    └─LeakyReLU: 2-5                    [1, 32, 97, 20]           --\n│    └─BatchNorm2d: 2-6                  [1, 32, 97, 20]           64\n│    └─Conv2d: 2-7                       [1, 32, 94, 20]           4,128\n│    └─LeakyReLU: 2-8                    [1, 32, 94, 20]           --\n│    └─BatchNorm2d: 2-9                  [1, 32, 94, 20]           64\n├─Sequential: 1-2                        [1, 32, 88, 10]           --\n│    └─Conv2d: 2-10                      [1, 32, 94, 10]           2,080\n│    └─Tanh: 2-11                        [1, 32, 94, 10]           --\n│    └─BatchNorm2d: 2-12                 [1, 32, 94, 10]           64\n│    └─Conv2d: 2-13                      [1, 32, 91, 10]           4,128\n│    └─Tanh: 2-14                        [1, 32, 91, 10]           --\n│    └─BatchNorm2d: 2-15                 [1, 32, 91, 10]           64\n│    └─Conv2d: 2-16                      [1, 32, 88, 10]           4,128\n│    └─Tanh: 2-17                        [1, 32, 88, 10]           --\n│    └─BatchNorm2d: 2-18                 [1, 32, 88, 10]           64\n├─Sequential: 1-3                        [1, 32, 82, 1]            --\n│    └─Conv2d: 2-19                      [1, 32, 88, 1]            10,272\n│    └─LeakyReLU: 2-20                   [1, 32, 88, 1]            --\n│    └─BatchNorm2d: 2-21                 [1, 32, 88, 1]            64\n│    └─Conv2d: 2-22                      [1, 32, 85, 1]            4,128\n│    └─LeakyReLU: 2-23                   [1, 32, 85, 1]            --\n│    └─BatchNorm2d: 2-24                 [1, 32, 85, 1]            64\n│    └─Conv2d: 2-25                      [1, 32, 82, 1]            4,128\n│    └─LeakyReLU: 2-26                   [1, 32, 82, 1]            --\n│    └─BatchNorm2d: 2-27                 [1, 32, 82, 1]            64\n├─Sequential: 1-4                        [1, 64, 82, 1]            --\n│    └─Conv2d: 2-28                      [1, 64, 82, 1]            2,112\n│    └─LeakyReLU: 2-29                   [1, 64, 82, 1]            --\n│    └─BatchNorm2d: 2-30                 [1, 64, 82, 1]            128\n│    └─Conv2d: 2-31                      [1, 64, 82, 1]            12,352\n│    └─LeakyReLU: 2-32                   [1, 64, 82, 1]            --\n│    └─BatchNorm2d: 2-33                 [1, 64, 82, 1]            128\n├─Sequential: 1-5                        [1, 64, 82, 1]            --\n│    └─Conv2d: 2-34                      [1, 64, 82, 1]            2,112\n│    └─LeakyReLU: 2-35                   [1, 64, 82, 1]            --\n│    └─BatchNorm2d: 2-36                 [1, 64, 82, 1]            128\n│    └─Conv2d: 2-37                      [1, 64, 82, 1]            20,544\n│    └─LeakyReLU: 2-38                   [1, 64, 82, 1]            --\n│    └─BatchNorm2d: 2-39                 [1, 64, 82, 1]            128\n├─Sequential: 1-6                        [1, 64, 82, 1]            --\n│    └─MaxPool2d: 2-40                   [1, 32, 82, 1]            --\n│    └─Conv2d: 2-41                      [1, 64, 82, 1]            2,112\n│    └─LeakyReLU: 2-42                   [1, 64, 82, 1]            --\n│    └─BatchNorm2d: 2-43                 [1, 64, 82, 1]            128\n├─LSTM: 1-7                              [1, 82, 64]               66,048\n├─Linear: 1-8                            [1, 3]                    195\n==========================================================================================\nTotal params: 143,907\nTrainable params: 143,907\nNon-trainable params: 0\nTotal mult-adds (M): 35.53\n==========================================================================================\nInput size (MB): 0.02\nForward/backward pass size (MB): 4.97\nParams size (MB): 0.58\nEstimated Total Size (MB)
…
